…
  AUTO_RESUME: false
  BASE_LR: 0.000125
  CLIP_GRAD: 5.0
  EPOCHS: 1
  LR_SCHEDULER:
    DECAY_EPOCHS: 30
    DECAY_RATE: 0.1
    NAME: cosine
  MIN_LR: 1.25e-06
  OPTIMIZER:
    BETAS:
    - 0.9
    - 0.999
    EPS: 1.0e-08
    MOMENTUM: 0.9
    NAME: adamw
  START_EPOCH: 0
  USE_CHECKPOINT: false
  WARMUP_EPOCHS: 20
  WARMUP_LR: 1.25e-07
  WEIGHT_DECAY: 0.05

[2021-12-09 19:55:11 dwnet_tiny_patch4_window7_224] (main.py 75): INFO Creating model:dwnet/dwnet_tiny_patch4_window7_224
[2021-12-09 19:55:12 dwnet_tiny_patch4_window7_224] (main.py 78): INFO DWNet(
  (patch_embed): PatchEmbed(
    (proj): Conv2d(3, 96, kernel_size=(4, 4), stride=(4, 4))
    (norm): LayerNorm((96,), eps=1e-05, elementwise_affine=True)
  )
  (pos_drop): Dropout(p=0.0, inplace=False)
  (layers): ModuleList(
    (0): BasicLayer(
      dim=96, input_resolution=(56, 56), depth=2
      (blocks): ModuleList(
        (0): SpatialBlock(
          dim=96, input_resolution=(56, 56) window_size=7, mlp_ratio=4.0
          (attn2conv): DWBlock(
            dim=96, window_size=7
            (conv0): Conv2d(96, 96, kernel_size=(1, 1), stride=(1, 1), bias=False)
            (bn0): BatchNorm2d(96, eps=1e-05, momentum=0.1, affine=True, track_running_stats=True)
            (conv): Conv2d(96, 96, kernel_size=(7, 7), stride=(1, 1), padding=(3, 3), groups=96)
            (bn): BatchNorm2d(96, eps=1e-05, momentum=0.1, affine=True, track_running_stats=True)
            (relu): ReLU(inplace=True)
            (conv2): Conv2d(96, 96, kernel_size=(1, 1), stride=(1, 1), bias=False)
            (bn2): BatchNorm2d(96, eps=1e-05, momentum=0.1, affine=True, track_running_stats=True)
          )
          (drop_path): Identity()
          (mlp): Mlp(
            (fc1): Linear(in_features=96, out_features=384, bias=True)
            (act): GELU()
            (fc2): Linear(in_features=384, out_features=96, bias=True)
            (drop): Dropout(p=0.0, inplace=False)
          )
          (bn): BatchNorm2d(96, eps=1e-05, momentum=0.1, affine=True, track_running_stats=True)
        )
        (1): SpatialBlock(
          dim=96, input_resolution=(56, 56) window_size=7, mlp_ratio=4.0
          (attn2conv): DWBlock(
            dim=96, window_size=7
            (conv0): Conv2d(96, 96, kernel_size=(1, 1), stride=(1, 1), bias=False)
            (bn0): BatchNorm2d(96, eps=1e-05, momentum=0.1, affine=True, track_running_stats=True)
            (conv): Conv2d(96, 96, kernel_size=(7, 7), stride=(1, 1), padding=(3, 3), groups=96)
            (bn): BatchNorm2d(96, eps=1e-05, momentum=0.1, affine=True, track_running_stats=True)
            (relu): ReLU(inplace=True)
            (conv2): Conv2d(96, 96, kernel_size=(1, 1), stride=(1, 1), bias=False)
            (bn2): BatchNorm2d(96, eps=1e-05, momentum=0.1, affine=True, track_running_stats=True)
          )
          (drop_path): DropPath()
          (mlp): Mlp(
            (fc1): Linear(in_features=96, out_features=384, bias=True)
            (act): GELU()
            (fc2): Linear(in_features=384, out_features=96, bias=True)
            (drop): Dropout(p=0.0, inplace=False)
          )
          (bn): BatchNorm2d(96, eps=1e-05, momentum=0.1, affine=True, track_running_stats=True)
        )
      )
      (downsample): PatchMerging(
        input_resolution=(56, 56), dim=96
        (reduction): Linear(in_features=384, out_features=192, bias=False)
        (norm): LayerNorm((384,), eps=1e-05, elementwise_affine=True)
      )
    )
    (1): BasicLayer(
      dim=192, input_resolution=(28, 28), depth=2
      (blocks): ModuleList(
        (0): SpatialBlock(
          dim=192, input_resolution=(28, 28) window_size=7, mlp_ratio=4.0
          (attn2conv): DWBlock(
            dim=192, window_size=7
            (conv0): Conv2d(192, 192, kernel_size=(1, 1), stride=(1, 1), bias=False)
            (bn0): BatchNorm2d(192, eps=1e-05, momentum=0.1, affine=True, track_running_stats=True)
            (conv): Conv2d(192, 192, kernel_size=(7, 7), stride=(1, 1), padding=(3, 3), groups=192)
            (bn): BatchNorm2d(192, eps=1e-05, momentum=0.1, affine=True, track_running_stats=True)
            (relu): ReLU(inplace=True)
            (conv2): Conv2d(192, 192, kernel_size=(1, 1), stride=(1, 1), bias=False)
            (bn2): BatchNorm2d(192, eps=1e-05, momentum=0.1, affine=True, track_running_stats=True)
          )
          (drop_path): DropPath()
          (mlp): Mlp(
            (fc1): Linear(in_features=192, out_features=768, bias=True)
            (act): GELU()
            (fc2): Linear(in_features=768, out_features=192, bias=True)
            (drop): Dropout(p=0.0, inplace=False)
          )
          (bn): BatchNorm2d(192, eps=1e-05, momentum=0.1, affine=True, track_running_stats=True)
        )
        (1): SpatialBlock(
          dim=192, input_resolution=(28, 28) window_size=7, mlp_ratio=4.0
          (attn2conv): DWBlock(
            dim=192, window_size=7
            (conv0): Conv2d(192, 192, kernel_size=(1, 1), stride=(1, 1), bias=False)
            (bn0): BatchNorm2d(192, eps=1e-05, momentum=0.1, affine=True, track_running_stats=True)
            (conv): Conv2d(192, 192, kernel_size=(7, 7), stride=(1, 1), padding=(3, 3), groups=192)
            (bn): BatchNorm2d(192, eps=1e-05, momentum=0.1, affine=True, track_running_stats=True)
            (relu): ReLU(inplace=True)
            (conv2): Conv2d(192, 192, kernel_size=(1, 1), stride=(1, 1), bias=False)
            (bn2): BatchNorm2d(192, eps=1e-05, momentum=0.1, affine=True, track_running_stats=True)
          )
          (drop_path): DropPath()
          (mlp): Mlp(
            (fc1): Linear(in_features=192, out_features=768, bias=True)
            (act): GELU()
            (fc2): Linear(in_features=768, out_features=192, bias=True)
            (drop): Dropout(p=0.0, inplace=False)
          )
          (bn): BatchNorm2d(192, eps=1e-05, momentum=0.1, affine=True, track_running_stats=True)
        )
      )
      (downsample): PatchMerging(
        input_resolution=(28, 28), dim=192
        (reduction): Linear(in_features=768, out_features=384, bias=False)
        (norm): LayerNorm((768,), eps=1e-05, elementwise_affine=True)
      )
    )
    (2): BasicLayer(
      dim=384, input_resolution=(14, 14), depth=6
      (blocks): ModuleList(
        (0): SpatialBlock(
          dim=384, input_resolution=(14, 14) window_size=7, mlp_ratio=4.0
          (attn2conv): DWBlock(
            dim=384, window_size=7
            (conv0): Conv2d(384, 384, kernel_size=(1, 1), stride=(1, 1), bias=False)
            (bn0): BatchNorm2d(384, eps=1e-05, momentum=0.1, affine=True, track_running_stats=True)
            (conv): Conv2d(384, 384, kernel_size=(7, 7), stride=(1, 1), padding=(3, 3), groups=384)
            (bn): BatchNorm2d(384, eps=1e-05, momentum=0.1, affine=True, track_running_stats=True)
            (relu): ReLU(inplace=True)
            (conv2): Conv2d(384, 384, kernel_size=(1, 1), stride=(1, 1), bias=False)
            (bn2): BatchNorm2d(384, eps=1e-05, momentum=0.1, affine=True, track_running_stats=True)
          )
          (drop_path): DropPath()
          (mlp): Mlp(
            (fc1): Linear(in_features=384, out_features=1536, bias=True)
            (act): GELU()
            (fc2): Linear(in_features=1536, out_features=384, bias=True)
            (drop): Dropout(p=0.0, inplace=False)
          )
          (bn): BatchNorm2d(384, eps=1e-05, momentum=0.1, affine=True, track_running_stats=True)
        )
        (1): SpatialBlock(
          dim=384, input_resolution=(14, 14) window_size=7, mlp_ratio=4.0
          (attn2conv): DWBlock(
            dim=384, window_size=7
            (conv0): Conv2d(384, 384, kernel_size=(1, 1), stride=(1, 1), bias=False)
            (bn0): BatchNorm2d(384, eps=1e-05, momentum=0.1, affine=True, track_running_stats=True)
            (conv): Conv2d(384, 384, kernel_size=(7, 7), stride=(1, 1), padding=(3, 3), groups=384)
            (bn): BatchNorm2d(384, eps=1e-05, momentum=0.1, affine=True, track_running_stats=True)
            (relu): ReLU(inplace=True)
            (conv2): Conv2d(384, 384, kernel_size=(1, 1), stride=(1, 1), bias=False)
            (bn2): BatchNorm2d(384, eps=1e-05, momentum=0.1, affine=True, track_running_stats=True)
          )
          (drop_path): DropPath()
          (mlp): Mlp(
            (fc1): Linear(in_features=384, out_features=1536, bias=True)
            (act): GELU()
            (fc2): Linear(in_features=1536, out_features=384, bias=True)
            (drop): Dropout(p=0.0, inplace=False)
          )
          (bn): BatchNorm2d(384, eps=1e-05, momentum=0.1, affine=True, track_running_stats=True)
        )
        (2): SpatialBlock(
          dim=384, input_resolution=(14, 14) window_size=7, mlp_ratio=4.0
          (attn2conv): DWBlock(
            dim=384, window_size=7
            (conv0): Conv2d(384, 384, kernel_size=(1, 1), stride=(1, 1), bias=False)
            (bn0): BatchNorm2d(384, eps=1e-05, momentum=0.1, affine=True, track_running_stats=True)
            (conv): Conv2d(384, 384, kernel_size=(7, 7), stride=(1, 1), padding=(3, 3), groups=384)
            (bn): BatchNorm2d(384, eps=1e-05, momentum=0.1, affine=True, track_running_stats=True)
            (relu): ReLU(inplace=True)
            (conv2): Conv2d(384, 384, kernel_size=(1, 1), stride=(1, 1), bias=False)
            (bn2): BatchNorm2d(384, eps=1e-05, momentum=0.1, affine=True, track_running_stats=True)
          )
          (drop_path): DropPath()
          (mlp): Mlp(
            (fc1): Linear(in_features=384, out_features=1536, bias=True)
            (act): GELU()
            (fc2): Linear(in_features=1536, out_features=384, bias=True)
            (drop): Dropout(p=0.0, inplace=False)
          )
          (bn): BatchNorm2d(384, eps=1e-05, momentum=0.1, affine=True, track_running_stats=True)
        )
        (3): SpatialBlock(
          dim=384, input_resolution=(14, 14) window_size=7, mlp_ratio=4.0
          (attn2conv): DWBlock(
            dim=384, window_size=7
            (conv0): Conv2d(384, 384, kernel_size=(1, 1), stride=(1, 1), bias=False)
            (bn0): BatchNorm2d(384, eps=1e-05, momentum=0.1, affine=True, track_running_stats=True)
            (conv): Conv2d(384, 384, kernel_size=(7, 7), stride=(1, 1), padding=(3, 3), groups=384)
            (bn): BatchNorm2d(384, eps=1e-05, momentum=0.1, affine=True, track_running_stats=True)
            (relu): ReLU(inplace=True)
            (conv2): Conv2d(384, 384, kernel_size=(1, 1), stride=(1, 1), bias=False)
            (bn2): BatchNorm2d(384, eps=1e-05, momentum=0.1, affine=True, track_running_stats=True)
          )
          (drop_path): DropPath()
          (mlp): Mlp(
            (fc1): Linear(in_features=384, out_features=1536, bias=True)
            (act): GELU()
            (fc2): Linear(in_features=1536, out_features=384, bias=True)
            (drop): Dropout(p=0.0, inplace=False)
          )
          (bn): BatchNorm2d(384, eps=1e-05, momentum=0.1, affine=True, track_running_stats=True)
        )
        (4): SpatialBlock(
          dim=384, input_resolution=(14, 14) window_size=7, mlp_ratio=4.0
          (attn2conv): DWBlock(
            dim=384, window_size=7
            (conv0): Conv2d(384, 384, kernel_size=(1, 1), stride=(1, 1), bias=False)
            (bn0): BatchNorm2d(384, eps=1e-05, momentum=0.1, affine=True, track_running_stats=True)
            (conv): Conv2d(384, 384, kernel_size=(7, 7), stride=(1, 1), padding=(3, 3), groups=384)
            (bn): BatchNorm2d(384, eps=1e-05, momentum=0.1, affine=True, track_running_stats=True)
            (relu): ReLU(inplace=True)
            (conv2): Conv2d(384, 384, kernel_size=(1, 1), stride=(1, 1), bias=False)
            (bn2): BatchNorm2d(384, eps=1e-05, momentum=0.1, affine=True, track_running_stats=True)
          )
          (drop_path): DropPath()
          (mlp): Mlp(
            (fc1): Linear(in_features=384, out_features=1536, bias=True)
            (act): GELU()
            (fc2): Linear(in_features=1536, out_features=384, bias=True)
            (drop): Dropout(p=0.0, inplace=False)
          )
          (bn): BatchNorm2d(384, eps=1e-05, momentum=0.1, affine=True, track_running_stats=True)
        )
        (5): SpatialBlock(
          dim=384, input_resolution=(14, 14) window_size=7, mlp_ratio=4.0
          (attn2conv): DWBlock(
            dim=384, window_size=7
            (conv0): Conv2d(384, 384, kernel_size=(1, 1), stride=(1, 1), bias=False)
            (bn0): BatchNorm2d(384, eps=1e-05, momentum=0.1, affine=True, track_running_stats=True)
            (conv): Conv2d(384, 384, kernel_size=(7, 7), stride=(1, 1), padding=(3, 3), groups=384)
            (bn): BatchNorm2d(384, eps=1e-05, momentum=0.1, affine=True, track_running_stats=True)
            (relu): ReLU(inplace=True)
            (conv2): Conv2d(384, 384, kernel_size=(1, 1), stride=(1, 1), bias=False)
            (bn2): BatchNorm2d(384, eps=1e-05, momentum=0.1, affine=True, track_running_stats=True)
          )
          (drop_path): DropPath()
          (mlp): Mlp(
            (fc1): Linear(in_features=384, out_features=1536, bias=True)
            (act): GELU()
            (fc2): Linear(in_features=1536, out_features=384, bias=True)
            (drop): Dropout(p=0.0, inplace=False)
          )
          (bn): BatchNorm2d(384, eps=1e-05, momentum=0.1, affine=True, track_running_stats=True)
        )
      )
      (downsample): PatchMerging(
        input_resolution=(14, 14), dim=384
        (reduction): Linear(in_features=1536, out_features=768, bias=False)
        (norm): LayerNorm((1536,), eps=1e-05, elementwise_affine=True)
      )
    )
    (3): BasicLayer(
      dim=768, input_resolution=(7, 7), depth=2
      (blocks): ModuleList(
        (0): SpatialBlock(
          dim=768, input_resolution=(7, 7) window_size=7, mlp_ratio=4.0
          (attn2conv): DWBlock(
            dim=768, window_size=7
            (conv0): Conv2d(768, 768, kernel_size=(1, 1), stride=(1, 1), bias=False)
            (bn0): BatchNorm2d(768, eps=1e-05, momentum=0.1, affine=True, track_running_stats=True)
            (conv): Conv2d(768, 768, kernel_size=(7, 7), stride=(1, 1), padding=(3, 3), groups=768)
            (bn): BatchNorm2d(768, eps=1e-05, momentum=0.1, affine=True, track_running_stats=True)
            (relu): ReLU(inplace=True)
            (conv2): Conv2d(768, 768, kernel_size=(1, 1), stride=(1, 1), bias=False)
            (bn2): BatchNorm2d(768, eps=1e-05, momentum=0.1, affine=True, track_running_stats=True)
          )
          (drop_path): DropPath()
          (mlp): Mlp(
            (fc1): Linear(in_features=768, out_features=3072, bias=True)
            (act): GELU()
            (fc2): Linear(in_features=3072, out_features=768, bias=True)
            (drop): Dropout(p=0.0, inplace=False)
          )
          (bn): BatchNorm2d(768, eps=1e-05, momentum=0.1, affine=True, track_running_stats=True)
        )
        (1): SpatialBlock(
          dim=768, input_resolution=(7, 7) window_size=7, mlp_ratio=4.0
          (attn2conv): DWBlock(
            dim=768, window_size=7
            (conv0): Conv2d(768, 768, kernel_size=(1, 1), stride=(1, 1), bias=False)
            (bn0): BatchNorm2d(768, eps=1e-05, momentum=0.1, affine=True, track_running_stats=True)
            (conv): Conv2d(768, 768, kernel_size=(7, 7), stride=(1, 1), padding=(3, 3), groups=768)
            (bn): BatchNorm2d(768, eps=1e-05, momentum=0.1, affine=True, track_running_stats=True)
            (relu): ReLU(inplace=True)
            (conv2): Conv2d(768, 768, kernel_size=(1, 1), stride=(1, 1), bias=False)
            (bn2): BatchNorm2d(768, eps=1e-05, momentum=0.1, affine=True, track_running_stats=True)
          )
          (drop_path): DropPath()
          (mlp): Mlp(
            (fc1): Linear(in_features=768, out_features=3072, bias=True)
            (act): GELU()
            (fc2): Linear(in_features=3072, out_features=768, bias=True)
            (drop): Dropout(p=0.0, inplace=False)
          )
          (bn): BatchNorm2d(768, eps=1e-05, momentum=0.1, affine=True, track_running_stats=True)
        )
      )
    )
  )
  (norm): LayerNorm((768,), eps=1e-05, elementwise_affine=True)
  (avgpool): AdaptiveAvgPool1d(output_size=1)
  (head): Linear(in_features=768, out_features=10, bias=True)
)
[2021-12-09 19:55:12 dwnet_tiny_patch4_window7_224] (main.py 87): INFO number of params: 23411434
[2021-12-09 19:55:12 dwnet_tiny_patch4_window7_224] (main.py 90): INFO number of GFLOPs: 3.74138112
[2021-12-09 19:55:12 dwnet_tiny_patch4_window7_224] (main.py 125): INFO Start training
[2021-12-09 20:11:11 dwnet_tiny_patch4_window7_224] (main.py 370): INFO Full config saved to output/dwnet_tiny_patch4_window7_224/dwnet_tiny_patch4_window7_224/default/config.json
…
